{"actor":{"modelTopology":{"class_name":"Model","config":{"name":"model1","layers":[{"name":"input1","class_name":"InputLayer","config":{"batch_input_shape":[null,1],"dtype":"float32","sparse":false,"name":"input1"},"inbound_nodes":[]},{"name":"dense_Dense1","class_name":"Dense","config":{"units":128,"activation":"relu","use_bias":true,"kernel_initializer":{"class_name":"VarianceScaling","config":{"scale":1,"mode":"fan_avg","distribution":"normal","seed":null}},"bias_initializer":{"class_name":"Zeros","config":{}},"kernel_regularizer":null,"bias_regularizer":null,"activity_regularizer":null,"kernel_constraint":null,"bias_constraint":null,"name":"dense_Dense1","trainable":true},"inbound_nodes":[[["input1",0,0,{}]]]},{"name":"dense_Dense2","class_name":"Dense","config":{"units":64,"activation":"relu","use_bias":true,"kernel_initializer":{"class_name":"VarianceScaling","config":{"scale":1,"mode":"fan_avg","distribution":"normal","seed":null}},"bias_initializer":{"class_name":"Zeros","config":{}},"kernel_regularizer":null,"bias_regularizer":null,"activity_regularizer":null,"kernel_constraint":null,"bias_constraint":null,"name":"dense_Dense2","trainable":true},"inbound_nodes":[[["dense_Dense1",0,0,{}]]]},{"name":"dense_Dense3","class_name":"Dense","config":{"units":4,"activation":"linear","use_bias":true,"kernel_initializer":{"class_name":"VarianceScaling","config":{"scale":1,"mode":"fan_avg","distribution":"normal","seed":null}},"bias_initializer":{"class_name":"Zeros","config":{}},"kernel_regularizer":null,"bias_regularizer":null,"activity_regularizer":null,"kernel_constraint":null,"bias_constraint":null,"name":"dense_Dense3","trainable":true},"inbound_nodes":[[["dense_Dense2",0,0,{}]]]}],"input_layers":[["input1",0,0]],"output_layers":[["dense_Dense3",0,0]]},"keras_version":"tfjs-layers 4.6.0","backend":"tensor_flow.js"},"weightSpecs":[{"name":"dense_Dense1/kernel","shape":[1,128],"dtype":"float32"},{"name":"dense_Dense1/bias","shape":[128],"dtype":"float32"},{"name":"dense_Dense2/kernel","shape":[128,64],"dtype":"float32"},{"name":"dense_Dense2/bias","shape":[64],"dtype":"float32"},{"name":"dense_Dense3/kernel","shape":[64,4],"dtype":"float32"},{"name":"dense_Dense3/bias","shape":[4],"dtype":"float32"}],"weightData":"…"},"critic":{"modelTopology":{"class_name":"Model","config":{"name":"model2","layers":[{"name":"input2","class_name":"InputLayer","config":{"batch_input_shape":[null,1],"dtype":"float32","sparse":false,"name":"input2"},"inbound_nodes":[]},{"name":"dense_Dense4","class_name":"Dense","config":{"units":64,"activation":"relu","use_bias":true,"kernel_initializer":{"class_name":"VarianceScaling","config":{"scale":1,"mode":"fan_avg","distribution":"normal","seed":null}},"bias_initializer":{"class_name":"Zeros","config":{}},"kernel_regularizer":null,"bias_regularizer":null,"activity_regularizer":null,"kernel_constraint":null,"bias_constraint":null,"name":"dense_Dense4","trainable":true},"inbound_nodes":[[["input2",0,0,{}]]]},{"name":"dense_Dense5","class_name":"Dense","config":{"units":32,"activation":"relu","use_bias":true,"kernel_initializer":{"class_name":"VarianceScaling","config":{"scale":1,"mode":"fan_avg","distribution":"normal","seed":null}},"bias_initializer":{"class_name":"Zeros","config":{}},"kernel_regularizer":null,"bias_regularizer":null,"activity_regularizer":null,"kernel_constraint":null,"bias_constraint":null,"name":"dense_Dense5","trainable":true},"inbound_nodes":[[["dense_Dense4",0,0,{}]]]},{"name":"dense_Dense6","class_name":"Dense","config":{"units":1,"activation":"linear","use_bias":true,"kernel_initializer":{"class_name":"VarianceScaling","config":{"scale":1,"mode":"fan_avg","distribution":"normal","seed":null}},"bias_initializer":{"class_name":"Zeros","config":{}},"kernel_regularizer":null,"bias_regularizer":null,"activity_regularizer":null,"kernel_constraint":null,"bias_constraint":null,"name":"dense_Dense6","trainable":true},"inbound_nodes":[[["dense_Dense5",0,0,{}]]]}],"input_layers":[["input2",0,0]],"output_layers":[["dense_Dense6",0,0]]},"keras_version":"tfjs-layers 4.6.0","backend":"tensor_flow.js"},"weightSpecs":[{"name":"dense_Dense4/kernel","shape":[1,64],"dtype":"float32"},{"name":"dense_Dense4/bias","shape":[64],"dtype":"float32"},{"name":"dense_Dense5/kernel","shape":[64,32],"dtype":"float32"},{"name":"dense_Dense5/bias","shape":[32],"dtype":"float32"},{"name":"dense_Dense6/kernel","shape":[32,1],"dtype":"float32"},{"name":"dense_Dense6/bias","shape":[1],"dtype":"float32"}],"weightData":"…"}}